Assets/RollerBallTest/ColoredRollerBall.onnx (onnx, 75401 bytes, 8 tensors)

action_model._continuous_distribution.log_sigma f4 [1, 2]
00000000: ee1a ccbe 205e 5bbe
-0.39864296 -0.21422625

action_model._continuous_distribution.mu.bias f4 [2]
00000000: 2b5b ef3c d996 12bc
0.029218277 -0.008947098

action_model._continuous_distribution.mu.weight f4 [2, 128]
00000000: 1d41 203d 84ec 0c3d bcb7 ad3d f59f 673c
00000010: 258a 673d be0a 35be 494c 95bd be61 14be
00000020: 1e59 acbd dc59 af3d 0834 d03d 84c0 e6bc
00000030: 4a50 f83d 01e7 99bc a316 28bc c436 24bd
00000040: 3456 39bd 6f09 a6bd 6478 90bb 675e 8b3b
00000050: bff7 82bc 74a8 22bc 8ffd eebc 99c4 65bd
00000060: cb49 793d 1269 07bc 1714 1f3d 294a bcbd
00000070: 4cfb 6e3c 8ba5 14be c62b 133d 5f66 d1bc
00000080: 85d4 55bc af7a 12bd 9fb9 cebd 72f6 67bd
00000090: 1adb 37bd 014c adbc 09be edbc 762b 903c
000000a0: 0718 d3bc 629a 99bd a7dd 183d 0548 53bd
000000b0: 23ce c43c 1909 4fbc 0718 afbc 8fbb c03a
000000c0: 141b 9abd 295d c1bd 4f5d 1cbd 842a 853d
000000d0: 1571 9ebc 669a 7b3b 8bec d03b 7e81 10bd
000000e0: b4c2 7cbc f3ac e3bc 266a 9f3d d3ff a93c
000000f0: c399 cbbb 5be0 7bbb 90e4 40bd e5b9 93bc
00000100: 3d81 00bd dde9 f5bc c4b5 9cbd 5bb4 ae3c
00000110: 5500 28bd 70e9 b0bc 4b13 89bc 4723 bcbd
00000120: 21ad 313d 2d5d 403d ee06 9f3c 09e4 f73a
00000130: aa3a 8d3d 0d37 873d 564a bfbd df99 55bc
00000140: be15 50bc 846f 1ebd afa4 e8bb 5a9e 4b3d
00000150: d24f ea3c f9a0 b1bb 39ce 89bd b80a abbc
00000160: 0fce 443c 1f29 acbd 60e8 b33d f24b dbbd
00000170: aace 46ba 322b 0ebd ac5b 043d 9f2e 38bc
00000180: 1fcd 9ebd 8ebe ccbb 3f16 6d3d d74c 32bd
00000190: 6c5a 64bc d9c2 3cbd b9e2 953b 607f 653d
000001a0: 16d2 fe3b a9b7 b3bd 97c7 1b3d b19b 413d
000001b0: fce2 8bbb 4c6f 5738 af7a ac3d c718 a93d
000001c0: d7d0 03be aeb4 aabd eb87 ef3d f3aa 593d
000001d0: 1138 2cbd c9c7 63bb 0e7a 303d 586e 63bd
000001e0: 4b8a bd3c b7ac e33c 414c 47bc e3a8 11bc
000001f0: 0f07 65bb 802b 5d3d 2c57 61bd 5bff 533d
00000200: 68d6 04bb 86a5 983d fee6 0bbc cd17 d63c
00000210: f888 f1bc dbe8 d0bc 9ecb 7d3d ecbf 8c3d
00000220: 6f3a 99bb da4b e9bb 0ce3 36bc dd98 94bd
00000230: 20dd eebc 1132 38bd 424e da3d eb61 a73b
00000240: d1e4 99bd f379 593d 9f0f 393d c27d d63d
00000250: fc8a 003d c7ae b5bd 516f 7a3d e5b2 f93d
00000260: 4789 263c 72be 97bc cc9c e9bd d560 7cbc
00000270: bc2e f73d 83df 873d 5e41 9e3d 313f ab3c
00000280: 3a18 d73d 1aff 123d c568 b93c 929b 153d
00000290: d587 663d 77f6 28bc cde1 053d e004 ebbd
000002a0: 9d7e 1cbd 8620 aa3d d3b3 3f3d a8c2 563d
000002b0: 2e6a 7d3b a164 933c c8c0 623d 1e12 35bc
000002c0: 1faf 463d 339c 47bd 508e 46bd 7903 133d
000002d0: 3f7d 56bd 598b ccbd 97ae bdbd de7d 553c
000002e0: 6e88 fc3c 7c67 c8bd 7b48 33bc 5e45 0d3e
000002f0: c68a 06bd 5915 913c c796 223c c18e 8abd
00000300: b191 8ebc 9a89 883d e5b7 6dbb e73c 27bd
00000310: c282 ae3d 4dd3 f3bd 2e42 283d 8f88 583d
00000320: e6ca b4bd d5d1 113d dd36 b3bd 1a7a 6fbd
00000330: e3da 053d c5ce a63d f3d1 9cbc e18e ccbd
00000340: 3398 54bd 9ca5 23bd f806 523c dd12 6ebc
00000350: dcc2 003c 1622 b63b 3bb7 ad3d 3de7 b73b
00000360: f34d 09bb badf 70bc d10f ad3b 9fa3 ea3d
00000370: 64a8 8e3c 1eb9 03bc 9092 4c3c 5a8d febd
00000380: 3567 c63d 438d 233e 2636 993d 7d4e 0abd
00000390: 3ecf 8bbd b1a0 bf3d 7307 523d ebe1 2a3c
000003a0: 1f5f cc3d d262 9cbc a6ab fb3b c6c0 b5bb
000003b0: 7c7c 35bc 18aa 03be 428c cc39 1887 8b3d
000003c0: af01 bb3d 99ca 5a3d ddd0 48ba efa0 3fbd
000003d0: fafc 42bc 34a9 5abd a348 ecbd 0e31 a83c
000003e0: a5af 193d 00f6 853b 0d9e a53c a618 11bd
000003f0: 71ed 42bd 3105 25bc 26e5 723c 15d4 edbc
0.039124597 0.034405246 0.0848231 0.014137258 0.05652823 -0.17679879 -0.07289941 -0.1449041
-0.08415435 0.08562061 0.10166174 -0.02816797 0.12124689 -0.018786909 -0.010259303 -0.04009129
-0.045248225 -0.08107268 -0.004408883 0.004253197 -0.015987275 -0.009927858 -0.02917364 -0.056095693
0.06086139 -0.008264797 0.03883752 -0.091938324 0.014586281 -0.14516275 0.035930417 -0.02556151
-0.013051157 -0.03576153 -0.10093998 -0.056631513 -0.044886686 -0.021154406 -0.02902128 0.017598849
-0.025768293 -0.07500149 0.03732076 -0.051582355 0.024024075 -0.012636446 -0.021373762 0.0014704334
-0.07524696 -0.09441597 -0.038174924 0.0650225 -0.019341031 0.003839159 0.0063758544 -0.035279743
-0.01542728 -0.02779243 0.07783918 0.02075187 -0.006213398 -0.0038433287 -0.047092974 -0.018032977
-0.03137325 -0.030018741 -0.076518565 0.021326235 -0.04101594 -0.021595687 -0.016732832 -0.09186416
0.043378 0.04696386 0.019412484 0.0018912564 0.06895955 0.06602297 -0.0934035 -0.013037174
-0.012700496 -0.03868057 -0.00709971 0.049711563 0.028602514 -0.0054208008 -0.06728787 -0.020879135
0.012012019 -0.08406281 0.087845564 -0.10707845 -0.0007583896 -0.034709163 0.032313988 -0.011241584
-0.077539675 -0.006248302 0.057882544 -0.04353031 -0.013937574 -0.04608426 0.0045741466 0.056029677
0.007776509 -0.08775265 0.03803214 0.04726762 -0.004269002 5.1363648e-05 0.084218375 0.08256679
-0.12872635 -0.08335243 0.11695846 0.053141546 -0.042045657 -0.0034756532 0.04308515 -0.055525154
0.023137232 0.027792318 -0.012164176 -0.008890363 -0.0034946834 0.053996563 -0.055014774 0.051757198
-0.0020269398 0.07453446 -0.00853896 0.026134396 -0.029484257 -0.02550166 0.061961763 0.06872544
-0.0046761553 -0.007119638 -0.011162531 -0.07255719 -0.029158175 -0.044969622 0.10659458 0.0051081083
-0.075143464 0.053094815 0.045180913 0.10473205 0.031382546 -0.08871227 0.061141316 0.121923245
0.010164565 -0.018523429 -0.1140686 -0.015403946 0.12069461 0.06634428 0.077273116 0.020904155
0.10502668 0.035887815 0.022632966 0.036525317 0.056281883 -0.010312668 0.032686044 -0.11475539
-0.038206685 0.083069846 0.046802353 0.052431732 0.0038668024 0.01799232 0.05535963 -0.011051683
0.048506852 -0.048732948 -0.048475564 0.035891984 -0.052365538 -0.09987516 -0.09261816 0.013030497
0.030826773 -0.09785363 -0.010942574 0.13795993 -0.03284719 0.017710375 0.009923643 -0.067655094
-0.017403455 0.066668704 -0.003627294 -0.040829565 0.08521034 -0.11905537 0.04107874 0.052864607
-0.08827762 0.035600502 -0.08750699 -0.058466054 0.03267945 0.08144907 -0.01914308 -0.099881895
-0.05190296 -0.03995286 0.012819044 -0.014530865 0.007858958 0.0055582626 0.08482214 0.0056122825
-0.0020951002 -0.014701778 0.0052814265 0.114569895 0.01741428 -0.008039741 0.012486115 -0.124293044
0.09687654 0.15971856 0.07481031 -0.03376626 -0.06826638 0.09356821 0.051276635 0.01042984
0.099790804 -0.01909009 0.007680374 -0.005546662 -0.011077043 -0.12857854 0.00039014412 0.068128765
0.091311805 0.05341587 -0.00076605176 -0.046784338 -0.011901135 -0.05338402 -0.11537292 0.020531204
0.037521023 0.0040881634 0.020216966 -0.035423897 -0.047589723 -0.0100720385 0.014825141 -0.029031793

action_model._discrete_distribution.branches.0.weight f4 [1, 128]
00000000: 0d25 c8bb b583 953b ff6b 49bb 6763 71bc
00000010: b240 32bb abbb d3b8 8759 4a3c 9826 4c3b
00000020: a34d ec3b 9b26 913c 03be ecbb cbc5 bb3b
00000030: 3b20 e03b 2042 f1bb e3a5 5c3c 8181 24bc
00000040: 58b5 543c a6f1 93bb 8311 87bc 3be4 063c
00000050: b08e debb 4b9e 883b f69b 913c d37d c4bb
00000060: 598d 14bc 9605 96ba 53e0 a43b 0dff e8ba
00000070: 33bc 65ba 4b26 1ebc c00b 503c 1c89 813b
00000080: 741d 223b 60a3 373b 2385 10bc fbf8 cdbb
00000090: 2f16 f23a 9b8e 23bc b072 163c c715 cbbb
000000a0: 105a 2abc f360 1bbb 4984 ad3b e2a0 58bb
000000b0: 833b 9bbc ed98 7abc 0e10 b739 4222 47bc
000000c0: d52d 243c 0adb e6bb d813 393a 4b10 543c
000000d0: c778 75ba 50c4 813a 4149 043c d766 d5ba
000000e0: f292 dabb 202e e2ba fe16 483b 6bf1 c7ba
000000f0: afef 163c afbf 3dbc 6393 fcbb 0a88 723c
00000100: 0233 e3bb 9226 d43b c800 533c fa36 26bc
00000110: 8b17 8a3b 59a3 aabb 8027 ee3b 1f21 7dbb
00000120: 7f49 7e3b 93c3 e3bb 5f5a 12bc c766 563c
00000130: 3ebe a1bc 878d 11bc c143 42bc 77a0 98bb
00000140: cf68 573a 1f79 a7bb c508 203c e07a 8b3c
00000150: fbde 5e3a 9fbc b2bb 956f 78bb 0a27 6b3c
00000160: 7719 1dbc 7a4c 10bc 6bc4 abba ef7d 4a38
00000170: aedd 843c 0e64 a23b 1e11 c1bb d935 ae3b
00000180: 1d62 d63b 7b2f a0bb b22e d83a e59e e8bb
00000190: a2ab 7eba 2868 e43a 3a97 0cbb 5013 453c
000001a0: 262b 9a3b 4fa6 4ebb 3de8 073c 22b5 74bb
000001b0: c319 8d3a 50c8 17bb f3d8 f53b c09b d63b
000001c0: b1b3 2ebb a928 443a 0f13 c3ba 9d34 533b
000001d0: a6db 0abc 1747 6abb 44a3 8bba 6570 02bc
000001e0: 5762 b6bb 3ff9 b83a b054 113c 6a44 fdba
000001f0: 6448 1fba 8ddf 36bc 8904 933b 633e f3ba
-0.0061079324 0.00456282 -0.0030734537 -0.014733172 -0.0027199206 -0.0001009622 0.012350447 0.0031150933
0.0072114035 0.017718604 -0.0072247996 0.005730366 0.0068397797 -0.007362619 0.013467285 -0.010040642
0.012982689 -0.0045148907 -0.016487842 0.008233125 -0.006791912 0.0041692606 0.017774563 -0.0059964447
-0.009066903 -0.0011445757 0.0050316243 -0.0017776206 -0.00087637006 -0.009652684 0.012698114 0.0039531123
0.0024736794 0.0028020963 -0.008820805 -0.0062857843 0.0018469746 -0.00998273 0.009182617 -0.0061976644
-0.010397449 -0.002370891 0.0052953106 -0.0033054878 -0.018949276 -0.015295249 0.00034916442 -0.012154164
0.010020693 -0.0070451545 0.0007060147 0.012943338 -0.00093640055 0.0009900425 0.008074106 -0.0016281259
-0.0066703493 -0.0017256178 0.0030531283 -0.0015254443 0.009212418 -0.011581345 -0.0077079996 0.014802942
-0.006933571 0.0064743245 0.012878604 -0.010144943 0.0042142323 -0.005207461 0.0072678924 -0.0038624478
0.0038801131 -0.0069508045 -0.008932679 0.0130860275 -0.019744035 -0.00888384 -0.011856974 -0.004657801
0.0008217217 -0.0051108743 0.009767716 0.017026365 0.00085018546 -0.0054546143 -0.0037908305 0.014352569
-0.009588591 -0.008807296 -0.0013104802 4.8277838e-05 0.016218986 0.004955775 -0.005891933 0.0053164777
0.0065424577 -0.0048884726 0.0016493408 -0.00709902 -0.00097149063 0.001742606 -0.0021452443 0.01202853
0.0047048507 -0.0031532233 0.008295116 -0.003733941 0.0010765124 -0.0023160167 0.007502669 0.0065493286
-0.0026657397 0.00074828655 -0.0014882999 0.0032227405 -0.00847522 -0.003574794 -0.0010653515 -0.007961367
-0.0055659222 0.0014112367 0.008870289 -0.0019322757 -0.00060761557 -0.011161697 0.0044866246 -0.0018558021

network_body._body_endoder.seq_layers.0.bias f4 [128]
00000000: 70f0 19be 24b6 a43d ea51 003d d4ee 82bd
00000010: 3fe2 25be 7e95 94bd 0c10 f2bd 66b3 9abd
00000020: afbd 22bd d097 403b 1f3b 993d 75d7 adbd
00000030: 38be 1cbd a352 6f3d e813 a3bb f16f 1b3e
00000040: 0d74 66bb b8cd 10be 2b7a b9bd 4a4b 1c3e
00000050: f1f9 bbbd 5848 e73d d189 023e be9b b6bc
00000060: b1c1 9bbb 3da8 01be d3ae da3b 7d59 8f3d
00000070: 24e7 4dbc a121 27bd 86d1 c33d fe1c b73c
00000080: 4e67 9c3b d779 7d3d ccc3 c13c f99d a6bd
00000090: aaa6 9b3d 9d90 043d cd62 5a3d e266 98bd
000000a0: e3bf 5e3d 9ba6 4bbc 8a92 d7bc c286 c53c
000000b0: 32b8 25bd 7607 a63d 07a8 e4bc dc47 1fbd
000000c0: 34cd bebd bffb fcbd d9ab a7bd 9e97 fe3c
000000d0: 1771 08bd 3a8f e1bd 768f 2cbd 47cd 7a3d
000000e0: 5864 62be 0398 3d3d aaf8 463b aaf5 06bd
000000f0: 7f72 28bd 47a9 f3bc b805 1b3d 1a7c 23bd
00000100: a183 2ebe 4803 5c3c 4dbc 983d d8dc a83d
00000110: 90f7 9f3d 2540 a53d 4c71 993c 3e65 5dbe
00000120: 1131 98bb c151 223d 20a2 8d3b b84b 953b
00000130: 980e 6fbc 6a53 8c3d bfee 7e3d 0859 fcbc
00000140: f8e4 f73c 6305 a7bd a8e7 b3bb e390 62bd
00000150: 941e 07be de37 de3c 575d 143b 8471 753a
00000160: 86aa 3cbe 0d2c 863d 3dfa ba3d e40b 723d
00000170: 8a5d dabc c283 773d ab24 2fb8 9fa1 323d
00000180: 6fc3 af3b dbae 06be e3de bd3d 9de6 b03c
00000190: f5c7 e7bd b6e3 133b 9300 34be 529c 38bd
000001a0: 1c9e be3c 7dde 06bd aab1 9aba 57fd 27bd
000001b0: 4d0e 33bd 7b2f c33d 7bc9 f7bc ce35 f4bc
000001c0: 9e7d f03a 004e dbb9 1256 1e3c e4bb acbd
000001d0: 5368 c43d 0730 8abd 1136 a2bc cb5e 193d
000001e0: 2ddf 06bd f672 343d 1f09 49bd 394a 8cbc
000001f0: 3cd2 5f3d 1180 d6bc 0b9b e5bd 2109 803b
-0.15033126 0.08042553 0.03132812 -0.06393209 -0.16199587 -0.07255076 -0.11819467 -0.07553749
-0.039731678 0.0029387362 0.074819796 -0.08488361 -0.038267344 0.058428418 -0.0049767382 0.15179421
-0.0035164386 -0.14140975 -0.09056505 0.15263095 -0.09178532 0.11293095 0.12747885 -0.02229106
-0.0047533144 -0.12661834 0.0066736727 0.069994904 -0.012567315 -0.040803555 0.09561448 0.022352692
0.004773057 0.061883774 0.023652934 -0.081356 0.07600148 0.032364476 0.05331688 -0.07441498
0.054382216 -0.012429859 -0.026314992 0.02411211 -0.040458865 0.08106892 -0.027912153 -0.03888689
-0.09316483 -0.12352704 -0.08187074 0.031078156 -0.033310976 -0.110136464 -0.042129003 0.061230924
-0.2210859 0.046287548 0.0030360618 -0.032949127 -0.041124817 -0.029743804 0.03784725 -0.039913274
-0.170424 0.013428517 0.074577905 0.082452476 0.07810891 0.08068875 0.018730782 -0.21620652
-0.004644521 0.039628748 0.0043223053 0.0045561455 -0.014590882 0.068518475 0.062239405 -0.030804172
0.030260548 -0.08155324 -0.005490262 -0.055313956 -0.13195258 0.027126249 0.0022638643 0.00093629234
-0.18424425 0.06551371 0.091297604 0.05909337 -0.026655931 0.06042839 -4.17574e-05 0.043611165
0.0053638737 -0.1315264 0.09271028 0.02159434 -0.11317436 0.0022566146 -0.17578344 -0.045070954
0.023268752 -0.032927025 -0.0011802216 -0.041013088 -0.04371481 0.095305406 -0.03024744 -0.029810812
0.0018347984 -0.0004182905 0.009664075 -0.08434275 0.09590211 -0.06747442 -0.019801171 0.037443917
-0.03292768 0.044054948 -0.049080964 -0.017125236 0.054643854 -0.026184114 -0.11211213 0.0039073383

network_body._body_endoder.seq_layers.0.weight f4 [128, 8]
00000000: 23f3 4e3e bcaf f43c b522 77bd 0949 e13b
00000010: f8a6 393c 06f2 91bd 3522 5dbd 15c6 e73d
00000020: 6562 8bbe 7db2 efbe 2c97 103f 6887 f33e
00000030: fb9d ca3e 9bc4 563e b8c0 28be 0ec8 11bc
00000040: b933 29be 7afd b2be b503 f9be 8436 d83e
00000050: 6570 e03e edf2 f83d 2987 9cbe 5aac b3be
00000060: 950b 8f3e 4bac 89be 848d 88be 4f85 95be
00000070: 454e 363e 7f57 75be d71f 93be 6258 9bbe
00000080: 9179 64be c9d8 4dbf 75ae c0be 7c30 623e
00000090: 9660 b7be 9aad c0be ba0e 6ebe dbff 9cbe
000000a0: c352 4ebe 1fbd 1cbe 390b 76bd 2000 283e
000000b0: c6e4 0bbf 25ce 36bf f7a3 a8bd de7d 693f
000000c0: 2d90 9dbe 9469 5cbf 0e24 81be 059c 5c3e
000000d0: 7cf0 49bd df9c b9be eaa2 91be 9758 e2bd
000000e0: 0558 71bc 10aa 2bbc 55d3 edbd a8a3 8fbe
000000f0: 4599 5fbe 744c 79be bcc8 cc3e c863 33bd
00000100: 71a6 40be 6cd6 5b3e 75b9 efbd c6be 03bf
00000110: 6637 303d 3105 673d edb9 a03e e460 e3bc
00000120: 6bf9 893e 4549 dbbe 21ca 0b3e 60af 94be
00000130: 9b32 743f a8bc 983e 45bb 19bf c4c7 903d
00000140: f150 b13e 694a a93d c217 a83d bd69 c1be
00000150: 45eb dc3e 598d 70be 9765 4fbe de8d 09bf
00000160: 2f7f 3ebe 1dc2 5fbe 7286 9f3e c4a7 9cbe
00000170: 3ff1 ebbe e67f a53e 8114 41bf 8d75 023e
00000180: 28e4 3b3d 1167 953e 7e61 153d e08c 963e
00000190: abc7 f63e c9b8 33be 7685 bc3e d623 4f3e
000001a0: f3ed 233f ca98 163e a1e6 dabe c344 7fbd
000001b0: 4a25 ccbd f850 ddbd 03a7 e8bd 194c 323f
000001c0: d3d2 cdbe 933d c0bd b67f 10bd 94ea c1be
000001d0: d825 b7be 8bc6 aa3e e07f 4a3f 6d5d 913b
000001e0: 509c b7be 483b 13be de25 bfbe 2df9 cc3e
000001f0: e5e0 ba3e 257a ee3e 72f4 673e 278d 753e
00000200: 38bd 8bbe 0b2a 5f3c d648 d63d 53a3 ae3e
00000210: 9eec 093f 0fc9 68be fe93 093f 978c 323e
00000220: 473b 0ebe 9540 edbe 378a 28be c4c3 c5bd
00000230: 186f e5be a571 223d 8ede 643e a0de cc3e
00000240: 7a8e a1be e850 903d 2955 a73b 146d 5cbf
00000250: 95e2 2ebe 216e de3e 0d97 77bc eeb8 4c3d
00000260: eed1 fdbe e9e4 0bbf e017 823e 26ba a93e
00000270: 0352 183f a4d6 343d 7b60 d13e d264 eb3e
00000280: 0c21 d33e e85d f3bb 5ce2 4e3e 3caa ae3e
00000290: f0b7 06bb b8ee 17bf ad2b 1d3d 2f4a 663e
000002a0: edc4 39bc d64f c63e d0ee 0abf 8639 733e
000002b0: a499 96be 52fc 073f a7c7 3cbe fcb5 b93d
000002c0: b258 34be 271d 9dbd 29fa bf3d 5793 0a3f
000002d0: 18c2 043f ef35 8a3e 2bd0 e13d ac4a f83e
000002e0: 3f2d 89be 54d4 babe d7f9 0e3e e94b a33e
000002f0: b65a 14bd 5ad7 1ebe caa2 ae3e 4baf c3be
00000300: 22df 11be 4a19 9cbe 8e4d edbe 29b6 0c3e
00000310: 5eff 913e e6f7 2e3d b56e 283f a9e4 043e
00000320: 4bef 973e ae1b 02be 2077 41be c7ad d6bd
00000330: d5b2 9d3e 695a c03c b36e c9bd 2ef8 013e
00000340: e2f4 7ebc 023a 313f 8db1 a13d f237 42be
00000350: 2b02 8f3e 4fcc 0b3e 65ce 063e 7fb3 3ebe
00000360: ab34 8d3c a7d0 573f b753 dbbe b77f 503e
00000370: 3197 a6bd 60c3 043f 7590 50bc 21cf 163d
00000380: eaaf 74be b215 8b3e d1a0 2c3f f769 be3e
00000390: 1180 533e 1f04 e4be 8856 92be f36c 28bf
000003a0: ae62 083f 38e0 c83e f71f 0fbe a53f b2bc
000003b0: 2458 dbbd ccf2 1abf e102 0abe ff33 983e
000003c0: 0fa8 a33e 7ca2 c2bd e52a ff3e 5a6a aebe
000003d0: 646a 093c 138b f3be 0d2d 89be 5535 75be
000003e0: adc9 e43e e243 3e3c d22f 983e 025a e3be
000003f0: d838 d13e e227 e8be cb1b 5abf e18f b03e
0.20209937 0.029868953 -0.060335834 0.0068751615 0.011331312 -0.071262404 -0.0539877 0.11317078
-0.27223507 -0.46815863 0.5648067 0.47564244 0.39573655 0.20973437 -0.16479766 -0.008897794
-0.16523637 -0.34959012 -0.4863564 0.42229092 0.4383575 0.121557094 -0.3057187 -0.3509243
0.27938524 -0.26889262 -0.26670468 -0.2920327 0.17803295 -0.23959158 -0.2873523 -0.30340868
-0.22311999 -0.8040891 -0.376331 0.22088808 -0.35815877 -0.37632447 -0.23247805 -0.30663952
-0.20148759 -0.15306519 -0.060069297 0.16406298 -0.54645956 -0.714083 -0.08234399 0.91207683
-0.3077406 -0.860986 -0.2522282 0.21543892 -0.04930161 -0.36252496 -0.28444606 -0.110520534
-0.014730458 -0.010477558 -0.11612574 -0.28054547 -0.21835811 -0.24345571 0.39996898 -0.04379633
-0.18813492 0.21468514 -0.11705295 -0.5146297 0.043021582 0.056401435 0.3139185 -0.027756162
0.26948103 -0.42829338 0.13651325 -0.2904005 0.9538972 0.29831433 -0.60051376 0.07069352
0.34632066 0.08266146 0.082076564 -0.37775984 0.43148246 -0.2349142 -0.20253597 -0.537321
-0.18603204 -0.21851392 0.3115726 -0.30596745 -0.46082494 0.3232414 -0.7542191 0.12740155
0.045871884 0.29180196 0.03646993 0.29404354 0.4819921 -0.17550959 0.36820573 0.20228514
0.64034957 0.14706722 -0.4275408 -0.062321436 -0.0996805 -0.10806459 -0.1135998 0.69647366
-0.4019991 -0.09386744 -0.035278045 -0.3787428 -0.3577106 0.333546 0.7910137 0.004436186
-0.35861444 -0.14378083 -0.37333578 0.40033856 0.36499706 0.46577564 0.22651842 0.23979627
-0.272928 0.013620864 0.10463111 0.34108981 0.53876674 -0.22732948 0.53741443 0.17436443
-0.138898 -0.46338335 -0.16458975 -0.0965648 -0.4481132 0.03965916 0.22350523 0.400136
-0.31554013 0.07046682 0.0051065874 -0.8610394 -0.17078622 0.43443397 -0.015111697 0.04998105
-0.49574226 -0.54646164 0.2540884 0.33149832 0.5950014 0.04415001 0.4089392 0.45975357
0.4123615 -0.007426966 0.20203537 0.34114254 -0.0020556413 -0.5934863 0.03837173 0.22489236
-0.011338455 0.38732785 -0.5427065 0.23752412 -0.29414093 0.53119385 -0.18435536 0.09067914
-0.1761196 -0.07671576 0.09373886 0.5413107 0.51858664 0.26994273 0.11026033 0.4849447
-0.26792333 -0.36490119 0.13962494 0.31893852 -0.03621932 -0.15511838 0.34108573 -0.38219675
-0.14245275 -0.30488044 -0.46348232 0.13741364 0.28515142 0.042716883 0.65793926 0.12977852
0.29674754 -0.12705871 -0.18893099 -0.10482364 0.308005 0.02348061 -0.09835567 0.1269233
-0.015561314 0.6922914 0.07895193 -0.18966654 0.27931342 0.13652156 0.13164671 -0.1862316
0.017237028 0.84302753 -0.42837307 0.2036122 -0.08134306 0.5186062 -0.012729754 0.036818627
-0.23895231 0.2716499 0.67432886 0.3719022 0.20654322 -0.44534394 -0.28581643 -0.65791243
0.53275573 0.39233565 -0.13977037 -0.021758864 -0.10710171 -0.6052673 -0.1347766 0.2972717
0.31964156 -0.09503648 0.49837413 -0.34065515 0.008387182 -0.47567043 -0.26792184 -0.23946126
0.44685116 0.011612864 0.29723984 -0.44404608 0.4086368 -0.45342928 -0.8519866 0.3448477

network_body._body_endoder.seq_layers.2.bias f4 [128]
00000000: d6ee 01bd 60f5 8b3d 2141 123d a514 ce3c
00000010: 0d10 473d c799 173e 80f4 9a3d 21e6 073e
00000020: cfcc 04bc 6326 923d 4d81 293d 41c9 8c3d
00000030: ac76 d53d 072b e63b 1ce0 dc3c f030 73bc
00000040: 7d08 973d edc1 ac3c 6d91 39bd ff51 1d3d
00000050: eb38 c6bc 51a6 0a3d 97f1 e73b 03b1 5dbd
00000060: bb99 c23c 0dc1 46bd 00ce 1f3e 6a9a c33d
00000070: 4660 b63d 8461 0f3e 4395 503d 55e7 6cbd
00000080: 3173 a33d 9508 02bc 81e3 793d 60a6 34bd
00000090: 5f93 16be 0e3a 7dbd 1ae1 a73a 8571 1a3e
000000a0: 8740 a53c bdcc dabb ad10 de3c fdf2 85bd
000000b0: 8840 96bb 1ff6 f4bd 6cfa 243c 006c dfbc
000000c0: 11ab 79bd c78c d83d 40c9 413d fe03 6d3d
000000d0: 1036 f3bc 0f87 a03d c307 7abd 19ef 79bd
000000e0: ea07 3fbd 528a 583d 1b39 3e3d 9275 043e
000000f0: 9ced f8bc cf7c 78bd 3705 dcbd a76a 3d3d
00000100: c521 95bc 1195 41bc bbd2 7a3d 8f62 38bd
00000110: a09e 9b3c f4a9 d83d 289e c53c 9f17 c93d
00000120: 3c60 703d 66ab 11bc 03d9 753d 38a9 563d
00000130: 29cb 2e3d 04ba a53d ce79 883c c185 a03d
00000140: 4cca 4f3d 624d a73c 2f33 debc 6ef2 203d
00000150: f03f a73c cc03 18bc 76aa 9fbc 36b1 a0bd
00000160: d6c0 83bd c54e 213d a1c2 01bd 4be1 823d
00000170: 8010 acbc bb9c 05bd 6f3b 6d3c 5de7 663d
00000180: caf9 6b3d cd61 b43d 8c36 833d c05e 493d
00000190: ea0c 0bbb fd92 6f3d 5139 eb3c 1c6c 9e3d
000001a0: 4c03 82bd 47d8 ab3d 7ffd 033d c391 0c3c
000001b0: e59c 94bd fea9 d53d b571 b73c a440 953d
000001c0: d612 b83d fa55 ff3d 1d70 c03d 0cf5 003c
000001d0: 611f b3bd cd22 7ebd 9f71 213e 4346 63bd
000001e0: 3f9e 11bd d768 8bbb 2f55 e1bd 148d 553d
000001f0: 86af f23b 626c 853d 06ae 4ebd 48ec 44ba
-0.031721912 0.06833911 0.035706643 0.025156328 0.04859929 0.14804755 0.07566166 0.13271381
-0.008105471 0.07136228 0.041383076 0.06874324 0.104230255 0.007024172 0.026962332 -0.014843211
0.07374666 0.021088565 -0.045304704 0.038408276 -0.024197062 0.033850018 0.0070783603 -0.05412389
0.023754945 -0.04852395 0.15605927 0.095509365 0.089050815 0.14002043 0.050923597 -0.057837803
0.079809554 -0.007936616 0.06100798 -0.04410398 -0.14704655 -0.061822943 0.0012808174 0.15082367
0.02017237 -0.0066772387 0.027107561 -0.06540487 -0.0045853294 -0.119610064 0.010069471 -0.027273178
-0.060954157 0.10573726 0.047311068 0.057865135 -0.029688865 0.078382604 -0.06104256 -0.061019037
-0.046638407 0.052866288 0.04644118 0.12935475 -0.030386738 -0.0606659 -0.10743182 0.04624429
-0.01820458 -0.011815325 0.061236124 -0.045015868 0.018996537 0.10579291 0.024123266 0.098189585
0.058685526 -0.008890962 0.06002141 0.052407473 0.042674217 0.0809212 0.016659644 0.078380115
0.050730035 0.020422641 -0.027124016 0.0392937 0.02041623 -0.009278249 -0.019490462 -0.078463
-0.06433265 0.03938176 -0.031679753 0.063906275 -0.021003962 -0.032620173 0.014479502 0.05637299
0.057611264 0.088077165 0.06406888 0.049162626 -0.0021217414 0.05848979 0.028713854 0.07735464
-0.06348285 0.08390861 0.032224175 0.008579674 -0.07256488 0.10432814 0.022393087 0.0728772
0.08987968 0.124675706 0.09396384 0.007870924 -0.087462194 -0.062044907 0.15766 -0.05548693
-0.035551306 -0.0042544412 -0.110025756 0.052136496 0.007406178 0.06514813 -0.05045893 -0.0007512015

network_body._body_endoder.seq_layers.2.weight f4 [128, 128]
00000000: 6ffc 49bd de1c d73c 0263 debc 74e2 68be
00000010: e740 babb 7d4c 723d 7f59 0bbd e5f5 ae3c
00000020: 227a 0abd 7d01 8c3d a592 1fbd 9acd 10be
00000030: 3956 31bc 289f 8fbd cda3 073e f0bb a63c
00000040: 4e16 8eb8 787a b0bd 74f5 c4bd eeff 113e
00000050: 74fc bd3b 9ad3 21bd 29a7 9fbd baa0 b13b
00000060: 2da5 023d f50d e7bc 4a6b 003d 7cf4 85bc
00000070: da2d 3abd 8ca8 363e 974e d8bd 674a 36bd
00000080: 9ab1 483e 6f1f ff3c 5573 1e3c 4688 653d
00000090: 588a b7bd 506d 0dbe 09da 8bbd a182 103e
000000a0: af25 5dbd ace4 1bbe 0bd9 983d 15ba 223c
000000b0: 3dc6 383d d249 f1bc b5fb 02be 72b3 db3d
000000c0: e431 ddbd 27f9 f1bd fa87 353e c8ad 3c3d
000000d0: 35f4 5f3d 4352 cdbd 2343 af3d 94e1 2f3e
000000e0: bb5e 85bb 15db 3fbe d96f 413c 222e 56bd
000000f0: 7366 353d 22c0 0ebc 6f8c 1bbe 36d6 f93c
00000100: 4979 753d 983e 91bc 7229 1b3c 9a61 843d
00000110: 67b0 e13c ae51 3ebe 74e8 523d 48a8 b2bc
00000120: 70c6 6c3d d9f3 3b3d a9e2 3e3d d2e3 453d
00000130: bae8 583d 7954 4abc ae58 d7bd 5299 873d
00000140: f254 a5bd 3dc5 2a3e ed15 9abd ec0b 42bc
00000150: 9137 dfbc 3036 6a3d 2e49 24bd c976 14bc
00000160: 1903 7fbe 653a 11be 10f5 19be 5fa7 bdbd
00000170: 8597 883e e71c c0bd 42fd 2bbe 6fc1 ea3d
00000180: 0a4a 333d 3395 71bd 6386 21bd f750 a43c
00000190: 3c3e 2cbe 69df 56bc 8061 98be 0faa e6bb
000001a0: edfa e73d 8f93 033d f0ae 9f3d 17ab 34bd
000001b0: b95a aaba 4fbb bbbd de85 303e 9390 073e
000001c0: 831a 5abc a49a ccbd c50a 66bd 1155 e93c
000001d0: d9d8 efbd a37e 31be def5 45be 3e6f 98bd
000001e0: e6e8 ca3d eac0 df3d b54b 07bd b3a6 1d3d
000001f0: cf14 3f3e 3ec5 253e dc5d ef3c abbc 1bbd
00000200: 9b30 afbd 3d23 aa3d 57ba 2fbe d549 c23d
00000210: a586 c23d d2da 15be 4199 e6bd bd4f 0dbd
00000220: 06ad 29bd 013f fc3d 94a0 d43d b531 173d
00000230: e96e 203d ddad 533e b90c 143d 0fc0 87be
00000240: eabd 303e 4fab 45bb ff5d 0d3c e08a eb3d
00000250: 6e94 4a3d c9c0 16be 9401 7abe 7966 f33c
00000260: 4367 093d 0767 033e acc8 ccbc 322c 08bd
00000270: 2940 a83c d875 fd3d 29ef 3f3e c2d3 9bbc
00000280: df8a 5d3e 6073 0b3c f0d4 2f3d 3050 8d3d
00000290: 236a 90be 5589 723c ac36 413e 6be0 553e
000002a0: c305 16be 4034 6abd c3c3 2a3d 5a43 19be
000002b0: 4fe9 ec3d b4e0 373d ae70 b53c fe3f 9f3d
000002c0: ddcd 27bd 8b3a 963d 96e3 cabd 3cdc be3c
000002d0: 469a 24bc 209a 543d 8baf 38bc d843 983c
000002e0: a3dd db3b dc24 7abc 0e70 1dbe 0016 9d3d
000002f0: 63c8 e43b 34e8 7c3c afa8 58bc 3027 34bd
00000300: 46d2 cb3c 22f0 723e 3f2d 053e 00d0 903d
00000310: dd51 053d 19d0 7cbd e590 85bb f685 25be
00000320: 4330 093c 34ee e03d df8d afbd 0a53 67be
00000330: 4c10 db3c eb53 8e3d 45c4 0d3d e91e c93d
00000340: 93ab 8bbd 2bdf 813e 614d 333e bc64 7539
00000350: 41ca 183e ecd8 7b3e e98f 623d 3c23 f2bd
00000360: fb6a 5cbc 7ae7 c43d d314 2cbe 23d7 c73d
00000370: 7c97 f13d 2202 07bd ab86 36be 4c52 1abe
00000380: 85ae 973d 7839 833d 5b03 123c cbb2 3abe
00000390: cd72 cc3c 006b b63d 49e2 443c c3c2 7c3c
000003a0: 5169 0cbe 0ded 80bd 8f7b 3b3d 947e 40be
000003b0: 3804 263c e419 7cbd ee4a 86bc a2bf fd3d
000003c0: 9c9b 373d e110 953e 31dd 48bc 68ff 17be
000003d0: cad7 08be c5a3 953d cfb8 f33d e1e9 26be
000003e0: 97ab 203e 820a a9bc 7975 3bbd 6f49 a5bd
000003f0: f3e3 86bc d9ea 0d3e 0203 b63d 01ce a9bd
-0.049313005 0.026258882 -0.02714682 -0.22742635 -0.0056840065 0.059154976 -0.034020897 0.021357486
-0.03380788 0.06836221 -0.03895821 -0.14140931 -0.01082378 -0.070127785 0.13246079 0.020353287
-6.775242e-05 -0.08617109 -0.09617129 0.14257786 0.005797917 -0.03950844 -0.07795555 0.0054207714
0.031895805 -0.028204897 0.03135232 -0.01635193 -0.045453884 0.17837733 -0.10561865 -0.04450455
0.19599 0.031142918 0.009671052 0.056038164 -0.08961934 -0.1381123 -0.06828696 0.14112331
-0.053991016 -0.1522395 0.07463273 0.009932061 0.04511093 -0.029454146 -0.12791331 0.10727586
-0.108005315 -0.118151 0.17727652 0.04606417 0.054676253 -0.10025456 0.08557727 0.17175895
-0.0040701306 -0.18735917 0.011806452 -0.05229009 0.044287156 -0.0087128 -0.1519029 0.030497652
0.05993012 -0.017730042 0.009470331 0.064639285 0.027549936 -0.18585846 0.051491216 -0.021808758
0.057806432 0.045886848 0.04660288 0.04831297 0.05295632 -0.012349241 -0.10514961 0.066210404
-0.08072843 0.16676803 -0.07523713 -0.011843663 -0.027248176 0.057180583 -0.040108852 -0.009061524
-0.24903525 -0.14182432 -0.1503489 -0.09260439 0.266781 -0.09380513 -0.16795829 0.11462676
0.04377178 -0.058980178 -0.0394348 0.020058138 -0.16820616 -0.013114789 -0.29761887 -0.0070393155
0.11327157 0.032123145 0.077970386 -0.044108476 -0.0012997008 -0.09166586 0.17238566 0.13238744
-0.013311985 -0.09990433 -0.056162614 0.028482946 -0.11711282 -0.17333464 -0.19332072 -0.07443093
0.09907703 0.10925467 -0.033031184 0.038489055 0.18660282 0.16188523 0.02921956 -0.038021725
-0.08554193 0.083075024 -0.17160927 0.094867386 0.09498338 -0.14634255 -0.112596996 -0.034499872
-0.041424774 0.123167045 0.1038219 0.03691264 0.039168272 0.20671792 0.036144946 -0.26513717
0.17259946 -0.0030161922 0.008628367 0.11501098 0.04945796 -0.14721979 -0.24414665 0.029711949
0.033545744 0.1283227 -0.024998032 -0.033245273 0.020538406 0.123759925 0.18743576 -0.019021872
0.21635006 0.008511394 0.042927682 0.0690006 -0.28205976 0.01480325 0.18868512 0.2088639
-0.14650635 -0.057178736 0.0416906 -0.14967099 0.115679376 0.044892028 0.022148456 0.077758774
-0.04096781 0.07335385 -0.0990669 0.023298375 -0.010046547 0.051904798 -0.011272321 0.018587038
0.0067097708 -0.015267577 -0.15374777 0.07670212 0.006981896 0.015436221 -0.013223811 -0.043982685
0.02488054 0.23724416 0.13005541 0.07070923 0.032548774 -0.061721895 -0.0040761107 -0.16164383
0.008373323 0.10982934 -0.08571982 -0.2259027 0.02674117 0.069496 0.034611005 0.09820349
-0.068198346 0.25365576 0.17509986 0.00023402547 0.14920904 0.24594468 0.055313025 -0.11823127
-0.0134532405 0.09614463 -0.16804819 0.09757831 0.117964715 -0.03296102 -0.17824809 -0.15070456
0.07406334 0.06407446 0.008911933 -0.18232267 0.024957085 0.089071274 0.012016841 0.015427294
-0.1371205 -0.06295214 0.04577213 -0.18798286 0.010132842 -0.06154813 -0.016393151 0.12390067
0.044826135 0.2911444 -0.012259767 -0.14843524 -0.13363567 0.07306627 0.11900484 -0.16300155
0.15690456 -0.020634893 -0.045766328 -0.08070647 -0.016466117 0.13859119 0.088872924 -0.08291245
