Assets/RollerBallTest/RollerBall.onnx (onnx, 75401 bytes, 8 tensors)

action_model._continuous_distribution.log_sigma f4 [1, 2]
-0.5514535 -0.43576324
00000000: 0e2c 0dbf 5c1c dfbe

action_model._continuous_distribution.mu.bias f4 [2]
-0.0037383605 0.07064
00000000: 48ff 74bb b4ab 903d

action_model._continuous_distribution.mu.weight f4 [2, 128]
0.030424094 0.011467695 -0.0021426978 -0.13393965 -0.10032051 -0.00848803 0.04675634 0.05140342
-0.0518332 -0.01869342 0.07234794 -0.08493539 -0.036466803 -0.031523738 -0.005570288 0.001335602
0.05774673 0.046118733 -0.09702816 -0.09046963 0.054239165 -0.0037171377 0.00745477 -0.0998446
0.036674395 -0.014985236 -0.00029753786 0.06535814 -0.06863303 -0.03435514 -0.03142365 0.025603341
-0.08101347 -0.10616891 -0.018805835 0.034927476 0.025072677 -0.004249625 0.039386168 -0.058319714
-0.0073196124 -0.028594201 -0.00442198 0.028828401 -0.08573302 0.0448951 -0.019962566 0.102701224
-0.014774323 0.057231646 0.05867609 -0.0135036865 -0.06328914 -0.0539492 -0.11093349 -0.101284
0.0058325855 -0.004284286 0.011354886 0.10468073 0.109405905 0.026918197 -0.066000536 0.030094896
0.013579758 -0.011902296 0.04400839 0.052794803 0.019894008 0.018730853 -0.029717293 0.0951043
-0.032169763 -0.09110113 0.092543155 0.011702453 0.030385539 0.09653359 -0.0060932883 0.087316245
0.045219924 0.05048739 0.026211318 -0.06955817 0.061395086 0.027582565 0.038370974 0.09185512
0.026610654 -0.007797046 -0.123031445 -0.019671556 0.060148798 0.03670028 -0.043163575 0.08344553
0.09848927 0.0284499 0.17336583 -0.036857385 0.06445283 -0.0126820225 0.13703182 -0.0258597
0.06828134 -0.015895303 -0.07753314 -0.07429049 -0.043942433 -0.10047858 0.09494136 -0.080699384
0.070654586 0.07270001 -0.03450706 0.0838133 0.037403945 0.02619588 0.01797022 0.081731044
0.055842236 -0.056783736 0.04095266 -0.023421427 -0.00053587015 -0.008998904 0.0045596813 -0.02060845
0.09762692 -0.07487153 -0.07042042 -0.0032121 0.1001091 -0.08314738 0.14070146 -0.07771374
-0.027059447 0.029340977 -0.04357046 0.02063572 0.031097462 0.007466453 -0.063961424 -0.07446375
-0.05550725 -0.107592955 -0.02267852 -0.019297479 0.09525192 0.021787543 -0.1205661 0.033529673
0.12576008 -0.04505866 -0.07246707 0.12109889 0.012037531 -0.030138785 -0.104576185 0.07058936
-0.0019545034 0.021769574 -0.0036275615 -0.10964512 -0.099740215 0.089175425 0.037649985 -0.07322205
0.11502182 0.08196975 -0.067059055 0.013999729 0.01102356 0.0525351 -0.12648307 0.057800837
-0.1062103 -0.06381355 0.070310354 -0.08858311 0.02868397 -0.088207126 -0.042088035 0.014828887
0.05073796 -0.034511458 -0.023763059 0.026029078 -0.035230976 0.04795115 0.045169055 -0.10104514
0.08000646 -0.12007116 0.10003482 0.052458804 -0.062441736 -0.044455346 -0.09882283 0.05037854
0.10121757 -0.015331669 -0.045359984 -0.06471604 -0.10414311 -0.018095663 0.050056037 0.09643197
-0.04778215 -0.115893975 -0.05732669 -0.00033603972 -0.090181775 0.10235016 -0.0835374 -0.03299479
0.01736818 0.10862296 0.07818457 -0.08118934 0.0053564403 0.029090375 -0.034423362 0.112011954
0.11985751 -0.08332067 0.14538479 -0.08937998 -0.05102581 -0.0889947 0.1377547 -0.061274767
0.024159003 -0.13352203 0.023963109 -0.08511507 -0.005333615 0.05004349 -0.09987626 -0.045381166
0.09869626 0.09225836 0.08576941 0.062487695 0.114977844 -0.1068208 -0.03774943 0.016534839
-0.028117066 0.040349 0.072332 0.04364526 -0.05487054 -0.09104169 -0.1237012 0.08497021
00000000: f33b f93c 00e3 3b3c 816c 0cbb 7a27 09be
00000010: d774 cdbd 6111 0bbc 9383 3f3d 648c 523d
00000020: 0d4f 54bd f122 99bc 282b 943d 9bf2 adbd
00000030: 375e 15bd 091f 01bd f686 b6bb 5e0f af3a
00000040: d687 6c3d ffe6 3c3d b3b6 c6bd 2448 b9bd
00000050: e329 5e3d 399b 73bb 2547 f43b 537b ccbd
00000060: e437 163d a384 75bc dbfe 9bb9 7dda 853d
00000070: 798f 8cbd fab7 0cbd 16b6 00bd 19be d13c
00000080: 64ea a5bd 166f d9bd b20e 9abc 1d10 0f3d
00000090: 3765 cd3c 7040 8bbb 6453 213d a7e0 6ebd
000000a0: 5cd9 efbb 633e eabc 42e6 90bb 8a29 ec3c
000000b0: cb94 afbd ede3 373d 8988 a3bc 0555 d23d
000000c0: 0110 72bc bb6b 6a3d 5756 703d 913e 5dbc
000000d0: bd9d 81bd d6f9 5cbd 1931 e3bd fc6d cfbd
000000e0: 461f bf3b 3263 8cbb d809 3a3c da62 d63d
000000f0: 3410 e03d 8d83 dc3c 4a2b 87bd 9289 f63c
00000100: a27d 5e3c d901 43bc 2442 343d 5d3f 583d
00000110: c2f8 a23c 7271 993c ae71 f3bc 0bc6 c23d
00000120: 71c4 03bd 3b93 babd 4487 bd3d a5bb 3f3c
00000130: 18eb f83c 67b3 c53d 35aa c7bb dcd2 b23d
00000140: 8738 393d decb 4e3d 1eb9 d63c 8474 8ebd
00000150: 6a79 7b3d d5f4 e13c e22a 1d3d 8a1e bc3d
00000160: 96fe d93c 5d7e ffbb e9f7 fbbd 3e26 a1bc
00000170: 965e 763d 0853 163d 4acc 30bd 7de5 aa3d
00000180: beb4 c93d c40f e93c d086 313e c5f7 16bd
00000190: d8ff 833d 42c8 4fbc 1252 0c3e b9d7 d3bc
000001a0: 16d7 8b3d de36 82bc b2c9 9ebd 9d25 98bd
000001b0: fbfc 33bd b7c7 cdbd 9e70 c23d b845 a5bd
000001c0: 5ab3 903d bee3 943d 4657 0dbd 4fa6 ab3d
000001d0: e134 193d be98 d63c 4836 933c 9b62 a73d
000001e0: d4ba 643d 1096 68bd fabd 273d 4bde bfbc
000001f0: a379 0cba 2470 13bc 6169 953b 0dd3 a8bc
00000200: 9ff0 c73d 3f56 99bd 9538 90bd 1882 52bb
00000210: 0006 cd3d 2c49 aabd 0b14 103e 6228 9fbd
00000220: c6ab ddbc 7d5c f03c f076 32bd 3e0c a93c
00000230: 1bc0 fe3c 26a9 f43b 35fe 82bd 7380 98bd
00000240: 925b 63bd b259 dcbd 4ec8 b9bc bf15 9ebc
00000250: 7013 c33d ca7b b23c 5ceb f6bd 6956 093d
00000260: 40c7 003e 6e8f 38bd 9d69 94bd b202 f83d
00000270: 1039 453c 9de5 f6bc 0a2c d6bd 2891 903d
00000280: 2017 00bb 1b56 b23c 62bc 6dbb 9f8d e0bd
00000290: 9944 ccbd 9ba1 b63d df36 1a3d 71f5 95bd
000002a0: 8f90 eb3d c2df a73d 4256 89bd 1f5f 653c
000002b0: 299c 343c 0c2f 573d c784 01be 92c0 6c3d
000002c0: c984 d9bd aeb0 82bd e0fe 8f3d 106b b5bd
000002d0: a5fa ea3c f0a5 b4bd 8164 2cbd dcf4 723c
000002e0: 9bd2 4f3d e35b 0dbd bfaa c2bc ef3a d53c
000002f0: 5b4e 10bd 6d68 443d 3003 393d c1f0 cebd
00000300: 6dda a33d dee7 f5bd 0edf cc3d 0bdf 563d
00000310: e8c2 7fbd cf16 36bd a063 cabd ba59 4e3d
00000320: 284b cf3d ae31 7bbc 64cb 39bd d889 84bd
00000330: fc48 d5bd 5b3d 94bc 8f07 4d3d 207e c53d
00000340: 37b7 43bd d259 edbd 64cf 6abd 7d2e b0b9
00000350: 39b1 b8bd f69c d13d a815 abbd 8b25 07bd
00000360: b747 8e3c b775 de3d 3b1f a03d 9946 a6bd
00000370: 1485 af3b f04e ee3c 83ff 0cbd 8666 e53d
00000380: db77 f53d 07a4 aabd c0df 143e da0c b7bd
00000390: 7100 51bd da42 b6bd 910f 0d3e 40fb 7abd
000003a0: 1ae9 c53c 00ba 08be 484e c43c cf50 aebd
000003b0: 9bc5 aebb 67fa 4c3d ed8b ccbd 9ae1 39bd
000003c0: 4421 ca3d f3f1 bc3d dfa7 af3d 19f3 7f3d
000003d0: 8179 eb3d ddc4 dabd 259f 1abd 1274 873c
000003e0: c355 e6bc fe44 253d cd22 943d 5fc5 323d
000003f0: eebf 60bd 1174 babd 0e57 fdbd dd04 ae3d

action_model._discrete_distribution.branches.0.weight f4 [1, 128]
0.009285837 0.011307428 -0.0011293249 0.019624578 -0.013614163 0.0029298202 -0.0081392685 -0.00018999116
-0.004340193 0.019664979 0.009825316 -0.007325376 0.00025711124 -0.0029476595 -0.009413398 0.004562021
0.0017796487 0.013725802 0.009221224 -0.006460521 -0.004959732 -0.0068474943 0.0016506313 -0.012145423
-0.009615376 0.0015862392 -0.0030093284 0.013080569 0.0020026655 0.008066156 -0.008878478 0.0033374985
0.01298451 0.0014846071 0.0004770609 0.014868535 0.011547427 -0.026289195 0.0052226563 -0.014123839
0.01652443 0.008093319 -0.002176352 0.006603565 -0.004819287 0.010977899 0.009625214 0.001304082
0.0068539293 0.01673993 -0.0070668533 -0.0031406432 0.023121772 -0.005481854 0.006685745 -0.0027741655
0.00044640322 -1.2093794e-05 0.005771205 0.0025749763 0.007985701 0.010381288 0.009203208 -0.01360877
0.009896658 0.005216469 -0.00931219 0.011527448 0.007032398 -0.012608662 0.0005401271 -0.000110677596
-0.0069995164 0.004194316 -0.010759466 0.006429645 -0.0004976846 -0.004510601 0.014621454 0.0048813163
-0.000117477415 -0.007769633 -0.000148806 -0.003281127 0.024090828 0.008580661 -0.0014143296 0.007564805
0.008929136 -0.005289476 -0.004071308 -0.0017651642 0.008368419 -0.0022238845 0.010485334 -0.021557445
0.0073038824 -0.0103751905 -0.0019563215 -0.0029983537 0.0047949995 -0.0002532111 0.0014466731 -0.007933688
0.013068912 -0.015734723 0.0019378985 0.0074161566 0.0018709258 -0.0009184004 -0.0029091663 -0.0043372856
0.008520549 -0.011577449 0.003172241 -0.007425394 -0.007089878 0.0027234487 0.0020480177 -0.0024267097
0.0056774807 -0.00011061782 0.019636858 -0.01962082 -0.008084518 -0.00875274 -0.010960397 -0.008181821
00000000: a023 183c ca42 393c db05 94ba b9c3 a03c
00000010: f00d 5fbc 3a02 403b 915a 05bc 5d38 47b9
00000020: 2d38 8ebb 7318 a13c 5dfa 203c b509 f0bb
00000030: e3cc 8639 852d 41bb a73a 1abc 017d 953b
00000040: 1a43 e93a 30e2 603c 9e14 173c c7b2 d3bb
00000050: 3f85 a2bb f260 e0bb ff59 d83a 99fd 46bc
00000060: cf89 1dbc 5be9 cf3a 2738 45bb e24f 563c
00000070: 273f 033b e927 043c 0977 11bc efb9 5a3b
00000080: fbbc 543c 2697 c23a 081e fa39 289b 733c
00000090: 6b31 3d3c 705c d7bc d122 ab3b ad67 67bc
000000a0: 3e5e 873c d799 043c 21a1 0ebb b862 d83b
000000b0: 1ceb 9dbb a5dc 333c 13b3 1d3c bbed aa3a
000000c0: ed96 e03b 2d22 893c 1091 e7bb 40d3 4dbb
000000d0: df69 bd3c 20a1 b3bb 1814 db3b c6ce 35bb
000000e0: 3a0b ea39 73e6 4ab7 601c bd3b efc0 283b
000000f0: 75d6 023c 4716 2a3c 0dc9 163c 52f7 5ebc
00000100: 9825 223c eaee aa3b 2892 18bc 9fdd 3c3c
00000110: 0870 e63b 9094 4ebc 5197 0d3a 951b e8b8
00000120: 335c e5bb 7970 893b 7948 30bc c5af d23b
00000130: 0c77 02ba aacd 93bb d38e 6f3c 73f3 9f3b
00000140: 355e f6b8 6898 febb ce08 1cb9 2d08 57bb
00000150: 215a c53c e795 0c3c 0761 b9ba 2fe2 f73b
00000160: 834b 123c 5753 adbb 9b68 85bb 155d e7ba
00000170: b11b 093c 97be 11bb aeca 2b3c 3d99 b0bc
00000180: 6855 ef3b b4fc 29bc a135 00bb 0780 44bb
00000190: 5f1f 9d3b 6bc1 84b9 4b9e bd3a 4dfc 01bc
000001a0: fd1e 563c 1be6 80bc 1501 fe3a 3b03 f33b
000001b0: da39 f53a cfc0 70ba b6a7 3ebb ca1f 8ebb
000001c0: c699 0b3c 57af 3dbc 5fe5 4f3b b850 f3bb
000001d0: 3552 e8bb e37b 323b 0938 063b 6f09 1fbb
000001e0: 290a ba3b 7dfb e7b8 7add a03c d8bb a0bc
000001f0: ed74 04bc a767 0fbc 3d93 33bc 0b0d 06bc

network_body._body_endoder.seq_layers.0.bias f4 [128]
0.012493299 0.052197088 -0.00011414158 0.012620872 -0.07186313 0.009755509 0.033947706 0.1565073
0.00038083986 -0.0983629 0.054426853 0.04596949 0.061688196 -0.058519974 -0.037881814 -0.028459001
-0.038640156 -0.00998099 0.082574695 0.05747144 0.06858063 0.044145826 0.0017449548 0.02392058
0.011723863 0.06422196 -0.056682345 0.032574233 0.13143735 -0.11174477 0.04789327 -0.02760903
-0.0045420895 -0.03780607 0.07177075 -0.06166914 -0.008092797 0.05759762 0.020692533 -0.12467189
0.0845242 0.04740684 -0.084788 0.099049315 0.07361216 -0.06380393 0.047537073 -0.16347547
0.01697771 0.04918057 -0.057874627 -0.013206503 -0.10327699 0.045213796 -0.057680372 0.090201326
0.078620225 -0.14218052 -0.07172744 -0.0088140415 0.108142495 0.017564224 -0.017525222 -0.08908922
-0.109099515 0.061210472 -0.06425354 -0.011628402 0.08097109 0.019940073 0.056097537 0.041601043
0.018318197 0.024874607 0.11211796 0.010059697 -0.044292092 -0.022945805 0.09804433 0.04102461
-0.17770974 0.03524685 0.025352934 0.06176061 0.0024640567 0.013321921 -0.069597326 0.027491665
0.11097398 0.0066643464 0.013110366 0.02266599 0.041050754 -0.010018547 0.023746029 0.012522097
0.06901297 -0.12223199 -0.1046147 -0.03357376 0.037509315 0.03128166 0.05420796 -0.08652039
0.035037756 -0.13302578 -0.045047723 0.029267995 -0.027699742 0.066093035 -0.0054210667 -0.026874743
-0.06829737 0.012173547 -0.038388398 -0.09790487 0.06651831 0.11905761 0.0074237804 -0.08569452
-0.05914589 -0.009316817 0.05881834 0.12776245 -0.071011014 -0.06194256 -0.021795424 0.04958958
00000000: b2b0 4c3c 9dcc 553d 4b5f efb8 c6c7 4e3c
00000010: fa2c 93bd 92d5 1f3c c00c 0b3d 7343 203e
00000020: 76ab c739 7d72 c9bd b1ee 5e3d 814a 3c3d
00000030: c3ac 7c3d a4b2 6fbd f629 1bbd da22 e9bc
00000040: 2445 1ebd 4e87 23bc ec1c a93d 2c67 6b3d
00000050: 0074 8c3d 41d2 343d f8b6 e43a 18f5 c33c
00000060: 7215 403c ce86 833d bf2b 68bd 8f6c 053d
00000070: 8397 063e 71da e4bd bc2b 443d 552c e2bc
00000080: cfd5 94bb 8ada 1abd 8bfc 923d c898 7cbd
00000090: a797 04bc 7beb 6b3d 6383 a93c fa53 ffbd
000000a0: 061b ad3d ad2d 423d 55a5 adbd 5eda ca3d
000000b0: f9c1 963d a3ab 82bd 3cb6 423d 1d66 27be
000000c0: d714 8b3c 9171 493d f20d 6dbd 1760 58bc
000000d0: e382 d3bd 1a32 393d 4142 6cbd 79bb b83d
000000e0: a403 a13d c597 11be d6e5 92bd c568 10bc
000000f0: d079 dd3d d9e2 8f3c 0e91 8fbc 6974 b6bd
00000100: 916f dfbd d5b7 7a3d 5c97 83bd 0e85 3ebc
00000110: 2cd4 a53d 5d59 a33c 88c6 653d db65 2a3d
00000120: 0b10 963c d5c5 cb3c 1a9e e53d 6dd1 243c
00000130: a06b 35bd d7f8 bbbc 77cb c83d 6c09 283d
00000140: 8bf9 35be 005f 103d f5b0 cf3c b2f8 7c3d
00000150: 037c 213b 3044 5a3c 0b89 8ebd 3336 e13c
00000160: 5346 e33d 9760 da3b dccc 563c 07ae b93c
00000170: d624 283d d524 24bc 0887 c23c 7b29 4d3c
00000180: ac56 8d3d c454 fabd 3b40 d6bd a484 09bd
00000190: 5ea3 193d 3321 003d 2a09 5e3d 9a31 b1bd
000001a0: c083 0f3d e937 08be f683 38bd 6fc3 ef3c
000001b0: 92ea e2bc c95b 873d 34a3 b1bb 6c28 dcbc
000001c0: 7edf 8bbd 8f73 473c 273d 1dbd 5982 c8bd
000001d0: c03a 883d 7ad4 f33d 2f43 f33b 9c80 afbd
000001e0: f642 72bd 90a5 18bc 80eb 703d 29d4 023e
000001f0: 396e 91bd 7bb7 7dbd 518c b2bc 721e 4b3d

network_body._body_endoder.seq_layers.0.weight f4 [128, 8]
-0.013879266 0.22729453 0.56774175 -0.100923054 -0.034636248 0.6175955 -0.0126212295 0.07511167
-0.48932156 -0.56735104 0.1775937 0.14399879 0.2551775 -0.516168 0.29504272 0.35386187
-0.4770203 0.07704383 0.3599796 -0.0021537582 0.41214648 0.12722923 -0.002421222 -0.27732044
-0.01821498 -0.46598434 -0.004422218 0.36149642 0.15327418 0.52631307 0.120739564 -0.55623245
-0.14554588 0.30064648 -0.18170467 0.1934754 0.2477128 0.081793584 0.09814575 -0.5399376
0.17905208 -0.30602944 0.232879 -0.060793757 -0.28135392 0.21362877 -0.39767697 0.22994125
0.0043769805 0.15570875 0.13007481 -0.22328739 0.58060145 -0.10561324 0.20073724 0.3212459
0.8122403 0.25501394 -0.109328374 -0.752317 -0.10253801 0.078087725 0.086999215 0.05959716
-0.15896186 -0.33726597 0.30686662 0.013267476 -0.20626 0.14432812 0.87945765 0.18076311
-0.14474481 0.16853954 -0.18842514 0.17451829 0.4150167 -0.40147078 -0.110043146 -0.18370093
-0.26068226 0.12403558 -0.64403737 -0.51824826 -0.71984607 0.4812852 0.2859581 -0.108239904
-0.016711323 0.028200988 -0.5710491 -0.33068073 -0.42215618 0.38718775 0.23001753 -0.21284127
-0.102328725 0.24278276 -0.12647952 0.77095324 0.74115986 -0.16897146 0.1911413 -0.22519694
0.2575461 -0.54222864 -0.21365659 -0.5590971 -0.6563742 -0.7068813 0.011493679 0.56328195
-0.06537116 -0.11982636 -0.4641982 0.08710193 -0.1356895 0.2220781 -0.19524519 0.47703817
-0.34831357 -0.5431277 -0.22556224 0.17192206 -0.13484843 -0.33271292 -0.36853126 0.11711271
0.38212612 0.4339185 0.21753265 0.013044554 0.19233347 0.16950665 -0.03674879 0.14304447
-0.18535015 0.037537884 -0.0131588 -0.27692145 0.88219684 -0.57212883 0.22729723 0.24065568
-0.11650373 0.23361072 0.331734 0.88697237 -0.019965729 -0.46989822 0.24136117 0.15372217
-0.20976536 0.6265799 -0.6414503 1.0905951 -0.5209542 -0.39814386 -0.2519387 0.762709
0.39955854 -0.06405979 0.048500743 -0.29987022 0.34556767 -0.21922858 -0.23187193 -0.94585985
0.585782 0.15152623 -0.08768556 -0.052612532 0.2981223 0.0036423546 0.074245565 0.18605469
-0.18674372 0.3728275 -0.53302354 0.21538176 -0.18877804 0.68057364 -0.486095 -0.19635572
0.20415604 -0.023825757 -0.44613123 0.31099504 0.23441786 0.78498507 -0.41503814 -0.31452492
-0.09364825 0.060960364 -0.96434796 0.45207363 0.28141266 -0.24562664 0.32904688 -0.09987842
-0.2643777 -0.18541211 0.40594864 -0.3765112 0.21784547 -0.49005133 0.53460693 -0.31362182
-0.031646434 -0.25969794 0.23025663 0.15500975 0.08501678 0.05580471 -0.7485252 0.18475425
0.39729488 0.1711241 -0.03571015 0.25629255 0.79988694 -0.34512722 -0.47651997 0.18302745
-0.65844035 -0.39130515 -0.21652421 0.45985663 0.05067819 0.041093726 0.21217822 0.07097287
-0.06218525 0.29243526 0.49781343 0.11547197 -0.5432662 0.009415 -0.12373739 -0.29166606
0.011693445 0.09098066 -0.4287333 -0.500979 0.18361531 0.44395128 0.12459995 -0.26418146
0.6890028 -0.12447064 -0.009089078 0.18631761 -0.03959753 0.15240315 0.15103543 -0.27774662
00000000: dc65 63bc e6bf 683e 8657 113f bfb0 cebd
00000010: bdde 0dbd bd1a 1e3f 46c9 4ebc 26d4 993d
00000020: 5b88 fabe eb3d 11bf 1fdb 353e 6b74 133e
00000030: a0a6 823e 9623 04bf d70f 973e 622d b53e
00000040: 013c f4be 28c9 9d3d 3f4f b83e 1126 0dbb
00000050: dd04 d33e 6148 023e 5dad 1ebb f2fc 8dbe
00000060: 9537 95bc 8095 eebe 41e8 90bb 0f16 b93e
00000070: e8f3 1c3e 74bc 063f 4e46 f73d 4065 0ebf
00000080: fb09 15be 56ee 993e ca10 3abe 6a1e 463e
00000090: 6da8 7d3e 6583 a73d a400 c93d 5a39 0abf
000000a0: 6e59 373e e4af 9cbe d577 6e3e e002 79bd
000000b0: 9f0d 90be 80c1 5a3e 519c cbbe b875 6b3e
000000c0: c66c 8f3b 1d72 1f3e 5532 053e 73a5 64be
000000d0: 4ca2 143f c14b d8bd 108e 4d3e 587a a43e
000000e0: fbee 4f3f 3091 823e 8ee7 dfbd d997 40bf
000000f0: 73ff d1bd 75ec 9f3d a52c b23d 271c 743d
00000100: e6c6 22be 20ae acbe 9f1d 9d3e d45f 593c
00000110: d235 53be c0ca 133e 2324 613f f719 393e
00000120: fc37 14be a195 2c3e 85f2 40be ecb4 323e
00000130: 127d d43e 948d cdbe 4d5e e1bd 191c 3cbe
00000140: 2578 85be 5e06 fe3d a2df 24bf ebab 04bf
00000150: d547 38bf 046b f63e 1a69 923e e2ac ddbd
00000160: 2fe6 88bc c205 e73c 4630 12bf fc4e a9be
00000170: db24 d8be 793d c63e b789 6b3e 10f3 59be
00000180: b991 d1bd 0b9c 783e d983 01be 315d 453f
00000190: a7bc 3d3f db06 2dbe 8cba 433e 079a 66be
000001a0: 15dd 833e 7fcf 0abf cbc8 5abe fd20 0fbf
000001b0: 2408 28bf 2cf6 34bf fc4f 3c3c 3f33 103f
000001c0: 51e1 85bd 8667 f5bd 63ab edbe 7f62 b23d
000001d0: 30f2 0abe 7168 633e 5bee 47be 593e f43e
000001e0: 2856 b2be 6b0a 0bbf caf9 66be 560c 303e
000001f0: b515 0abe 5959 aabe 21b0 bcbe cad8 ef3d
00000200: 09a6 c33e 912a de3e e1c0 5e3e d3b8 553c
00000210: 11f3 443e 2793 2d3e e685 16bd 407a 123e
00000220: 6ecc 3dbe 53c1 193d 0298 57bc a6c8 8dbe
00000230: a7d7 613f 0977 12bf 9bc0 683e 716e 763e
00000240: 8299 eebd a637 6f3e 0ad9 a93e 9f10 633f
00000250: 2b8f a3bc 8096 f0be 6227 773e 5869 1d3e
00000260: bbcc 56be 8a67 203f 1636 24bf 9f98 8b3f
00000270: 415d 05bf 83d9 cbbe 1cfe 80be e640 433f
00000280: f092 cc3e c731 83bd b7a8 463d 9788 99be
00000290: 3fee b03e 757d 60be d66f 6dbe df23 72bf
000002a0: cff5 153f b129 1b3e 7d94 b3bd 3d80 57bd
000002b0: 7ca3 983e 92b4 6e3b 0f0e 983d 1f85 3e3e
000002c0: bf39 3fbe 3fe3 be3e 3b74 08bf 098d 5c3e
000002d0: 084f 41be 133a 2e3f 72e1 f8be 7911 49be
000002e0: 480e 513e 3c2e c3bc 506b e4be be3a 9f3e
000002f0: 3c0b 703e c8f4 483f e17f d4be 6909 a1be
00000300: a7ca bfbd 93b1 793d 82df 76bf 3276 e73e
00000310: 5215 903e 8d85 7bbe d578 a83e 0f8d ccbd
00000320: 845c 87be acdc 3dbe 80d8 cf3e 13c6 c0be
00000330: e212 5f3e 02e8 fabe 00dc 083f 0a93 a0be
00000340: b19f 01bd 21f7 84be 65c8 6b3e e0ba 1e3e
00000350: 471d ae3d 7b93 643d 599f 3fbf 3830 3d3e
00000360: 3c6a cb3e 283b 2f3e ce44 12bd c738 833e
00000370: 64c5 4c3f 84b4 b0be 6dfa f3be 8c6b 3b3e
00000380: 8c8f 28bf 2659 c8be 86b8 5dbe 5472 eb3e
00000390: ef93 4f3d e551 283d 3f45 593e 395a 913d
000003a0: f6b5 7ebd 13ba 953e 67e1 fe3e 917c ec3d
000003b0: 7e13 0bbf 5f41 1a3c 076a fdbd 4155 95be
000003c0: dd95 3f3c 1154 ba3d ee82 dbbe 2940 00bf
000003d0: a705 3c3e 954d e33e 422e ff3d cb42 87be
000003e0: 7d62 303f 77ea febd 5bea 14bc 0bca 3e3e
000003f0: 0531 22bd 920f 1c3e 08a9 1a3e ce34 8ebe

network_body._body_endoder.seq_layers.2.bias f4 [128]
0.101284154 0.01766783 0.0013005065 0.098931976 0.1004471 -0.049192518 0.1687719 0.032715116
0.02336802 -0.022047805 0.03896852 0.047596354 0.035629388 -0.09721174 -0.045744933 -0.01849113
0.00019893936 0.024749516 0.059237164 0.039146826 0.033117127 -0.07217265 0.05616321 0.044474367
0.025154594 -0.06274215 -0.040892307 0.093858235 0.011039907 -0.021673659 0.011143957 0.096080884
0.026101477 0.056724764 -0.080204524 0.01434754 -0.002739014 -0.021021493 -0.016602661 0.0048137894
0.10414378 0.05549747 -0.029739613 -0.039684027 0.033974253 0.0012838903 -0.050025225 0.071349695
-0.04877927 0.03729442 0.06901802 0.023836723 0.046792038 0.030887235 0.047991805 0.0395579
-0.00022239967 -0.02217087 -0.10544869 0.03195074 0.045761794 -0.031234859 0.052963063 -0.014876077
0.106810875 0.0067246556 0.12279808 0.019813273 -0.047722295 -0.041958366 -0.024470635 0.07631316
0.048250195 0.0154270055 0.047143854 -0.01157605 0.016167335 -0.043742664 0.05753682 0.1382316
0.06679195 0.019687349 -0.051657896 0.00827496 0.023214102 0.086801745 0.014660008 0.049911406
-0.058976863 0.09330134 0.048627973 -0.027579516 0.037377167 -0.032170605 0.016900377 0.12631725
0.09641373 0.005415646 0.13288295 -0.0072964393 0.03205417 -0.004664475 0.13799356 -0.05450995
0.038908586 0.055197395 0.07078984 0.041057203 -0.008061167 0.046364076 0.048642654 0.007599846
0.060989812 0.059078973 0.029137958 0.024818655 0.025393063 0.009622406 -0.060717788 0.051969185
0.040167365 0.041900344 0.039922696 -0.0017437277 -0.06647319 -0.014578662 0.052530613 -0.061488178
00000000: 116e cf3d 20bc 903c c275 aa3a d99c ca3d
00000010: 36b7 cd3d 187e 49bd 8ad2 2c3e 4900 063d
00000020: 4a6e bf3c 999d b4bc 749d 1f3d 65f4 423d
00000030: 1ff0 113d f316 c7bd 0a5f 3bbd b67a 97bc
00000040: 619a 5039 7fbf ca3c aba2 723d 6c58 203d
00000050: d3a5 073d 41cf 93bd 650b 663d c12a 363d
00000060: 0211 ce3c f57e 80bd b17e 27bd bf38 c03d
00000070: bae0 343c f58c b1bc 2595 363c 0ec6 c43d
00000080: c4d2 d53c 3a58 683d 4542 a4bd f211 6b3c
00000090: 0881 33bb 4435 acbc 4e02 88bc febc 9d3b
000000a0: 5649 d53d 5151 633d 7da0 f3bc b88b 22bd
000000b0: 9628 0b3d 3648 a83a 40e7 4cbd ca1f 923d
000000c0: c6cc 47bd 09c2 183d 5259 8d3d 3b45 c33c
000000d0: 02a9 3f3d 3a07 fd3c 0e93 443d 7707 223d
000000e0: f533 69b9 af9f b5bc 7cf5 d7bd c7de 023d
000000f0: b870 3b3d 3fe0 ffbc ccef 583d caba 73bc
00000100: a9bf da3d 805a dc3b 8f7d fb3d 724f a23c
00000110: 7478 43bd 89dc 2bbd a476 c8bc 134a 9c3d
00000120: ffa1 453d 8dc1 7c3c ea19 413d 79a9 3dbc
00000130: 5c71 843c 822b 33bd bbab 6b3d 968c 0d3e
00000140: 38ca 883d 5d47 a13c 3b97 53bd b393 073c
00000150: 802b be3c 1dc5 b13d 8830 703c e76f 4c3d
00000160: b991 71bd c614 bf3d 202e 473d 70ee e1bc
00000170: cd18 193d 53c5 03bd a972 8a3c 4f59 013e
00000180: 9074 c53d bb75 b13b 7812 083e f816 efbb
00000190: 3c4b 033d 74d8 98bb 2f4e 0d3e d345 5fbd
000001a0: 9c5e 1f3d aa16 623d 43fa 903d 992b 283d
000001b0: fc12 04bc 42e8 3d3d 853d 473d 2108 f93b
000001c0: 74d0 793d cbfc 713d bab2 ee3c 7e50 cb3c
000001d0: 1d05 d03c 4ca7 1d3c 37b3 78bd a4dd 543d
000001e0: 8986 243d b29f 2b3d fb85 233d cb8d e4ba
000001f0: 1923 88bd 57db 6ebc 572a 573d 07db 7bbd

network_body._body_endoder.seq_layers.2.weight f4 [128, 128]
6.6979933e-06 0.07698966 0.065779686 -0.27043188 -0.01949654 -0.01886089 0.18851765 0.1618262
0.09238097 -0.026315955 -0.09417993 -0.05826211 -0.032565184 0.09380428 -0.01750904 0.09955696
-0.03205238 0.06410948 0.1861854 0.010543523 0.1602749 0.12056828 -0.14375141 -0.093198635
0.1874338 0.08225288 0.016213626 -0.02112968 0.10639022 0.13080673 -0.10113716 0.054349855
-0.020778883 0.10321828 0.020433415 0.08399387 0.023935515 -0.055728815 0.0034156027 0.09067539
0.02382205 -0.0058956477 -0.121613376 0.12478196 0.13344666 0.069958754 -0.22747509 -0.13680539
0.05523582 0.045272127 0.041315585 0.022888497 -0.12256271 0.16049437 0.09034204 0.007469034
0.0700323 -0.07272226 0.03563003 -0.24197678 0.13092716 0.077214316 0.046010196 0.097370856
0.028797267 0.11836965 -0.03802872 -0.20014217 0.042015605 -0.025477361 0.12560193 0.110374905
0.10858179 -0.050593708 -0.4074662 -0.011337911 0.037863526 0.05835651 0.05178415 0.1260308
-0.00151375 -0.011314557 0.18684141 0.14266147 0.114640005 -0.044948917 -0.012805514 -0.01415614
-0.21318777 0.04715578 0.29355645 0.12053007 0.117411576 -0.041230887 0.08199266 -0.12423957
0.113050796 -0.02321825 0.050253455 -0.0400326 0.22364052 -0.08416915 0.052903708 -0.09472405
-0.025181096 -0.034409128 -0.28603056 -0.013002439 -0.022090355 0.12471491 0.051328406 0.20629871
0.12439712 -0.15984052 -0.10865 3.0230894e-05 -0.009117668 -0.3340458 0.04591928 -0.07366968
0.040071033 0.093385406 -0.091845416 0.0279427 -0.0025696547 0.13837473 -0.14882712 -0.011098866
0.02697042 -0.18517321 -0.040797934 -0.058457118 0.13592243 -0.014459268 -0.06306362 -0.189242
-0.03973706 0.0007373716 0.1226233 0.084708005 0.09484803 0.03171221 0.21391886 0.013013018
0.10767779 -0.03534845 0.017058823 -0.042938042 -0.11298263 0.006840476 0.09594939 -0.023863813
0.0042156996 0.021485828 -0.059893265 -0.028273743 0.15327902 -0.021978747 0.1525457 0.1976819
0.12767226 -0.0060896776 -0.061228685 -0.11762273 0.09690135 0.10519306 -0.0042216475 0.0044395947
-0.27171525 -0.030463532 0.026029905 0.018052291 -0.11794392 -0.04574935 0.04664417 -0.1758
-0.074332975 -0.27594134 -0.143014 -0.0017175699 0.1087367 -0.094899654 0.013949211 0.13304913
0.027405579 0.111063585 -0.088545084 0.013628184 0.0820594 -0.02294572 0.082986385 -0.07631692
-0.02873088 -0.02973969 0.06061168 0.04265603 -0.1328019 0.16595899 -0.23053594 0.17885615
-0.105921194 0.07388697 0.048570063 0.108175986 0.08433128 -0.08231857 0.14566408 -0.12527023
-0.033190463 -0.08136565 -0.1616998 0.06969751 -0.10218181 0.0046952846 0.10378852 0.25590312
0.027789569 0.06107586 -0.1445824 0.027645396 -0.16640925 0.13030723 0.047835823 0.07142737
0.005907202 0.006231019 -0.1931526 0.03233794 -0.078996986 0.015081972 -0.016049415 -0.07935718
-0.07151637 -0.16150399 0.032379147 -0.098667376 0.15752052 -0.08838664 -0.024448102 0.020694785
-0.023843493 -0.06685181 0.07460277 0.07627339 -0.086818695 0.17017438 0.18388076 0.08519374
0.15129691 -0.0135225495 0.1761147 0.117541544 -0.026779585 -0.010778057 0.025024932 0.19852062
00000000: 53bf e036 c1ac 9d3d 80b7 863d 0c76 8abe
00000010: 35b7 9fbc 2782 9abc c50a 413e c4b5 253e
00000020: 3c32 bd3d 8f94 d7bc 68e1 c0bd 40a4 6ebd
00000030: 1263 05bd 751c c03d 1e6f 8fbc 85e4 cb3d
00000040: 5b49 03bd d54b 833d 63a7 3e3e bebe 2c3c
00000050: 1a1f 243e 81ec f63d 9233 13be edde bebd
00000060: a5ee 3f3e 3374 a83d 70d2 843c 2718 adbc
00000070: 1ee3 d93d 33f2 053e 0021 cfbd f49d 5e3d
00000080: 7a38 aabc 1b64 d33d fa63 a73c fa04 ac3d
00000090: 6a14 c43c e643 64bd 4ed8 5f3b 05b4 b93d
000000a0: 7626 c33c 4730 c1bb 6f10 f9bd af8d ff3d
000000b0: 3ea6 083e 8946 8f3d 3bef 68be b616 0cbe
000000c0: f53e 623d 446f 393d 883a 293d a880 bb3c
000000d0: 2802 fbbd a358 243e 3f05 b93d ccbe f43b
000000e0: 186d 8f3d 69ef 94bd cbf0 113d c3c8 77be
000000f0: c511 063e 8a22 9e3d 3075 3c3d 5f6a c73d
00000100: 3fe8 eb3c c96b f23d 01c4 1bbd 12f2 4cbe
00000110: 8e18 2c3d e6b5 d0bc cb9d 003e 3d0c e23d
00000120: 2160 de3d 593b 4fbd 699f d0be a5c2 39bc
00000130: c916 1b3d 3c07 6f3d 9e1b 543d 380e 013e
00000140: 0569 c6ba b160 39bc 5b53 3f3e d915 123e
00000150: 61c8 ea3d 5b1c 38bd 38ce 51bc 28ef 67bc
00000160: e54d 5abe 6b26 413d 084d 963e 78d8 f63d
00000170: 7b75 f03d b8e1 28bd c5eb a73d 5171 febd
00000180: 2d87 e73d 3334 bebc 91d6 4d3d 39f9 23bd
00000190: 0502 653e e060 acbd 8fb1 583d affe c1bd
000001a0: 9648 cebc 96f0 0cbd 9972 92be 2f08 55bc
000001b0: d5f6 b4bc 886a ff3d bc3d 523d f83f 533e
000001c0: ebc3 fe3d 3cad 23be e483 debd 5a98 fd37
000001d0: 4562 15bc 0d08 abbe db15 3c3d 21e0 96bd
000001e0: 8621 243d d940 bf3d 7319 bcbd 17e8 e43c
000001f0: a767 28bb 1bb2 0d3e 2366 18be 05d8 35bc
00000200: 12f1 dc3c 0c9e 3dbe bc1b 27bd bb70 6fbd
00000210: 402f 0b3e 91e6 6cbc 8027 81bd a8c8 41be
00000220: 54c3 22bd 2c4c 413a ed21 fb3d 647b ad3d
00000230: af3f c23d aae4 013d 8c0d 5b3e 8e34 553c
00000240: 2c86 dc3d 89c9 10bd f2be 8b3c cddf 2fbd
00000250: 7063 e7bd 1226 e03b 1d81 c43d 0b7e c3bc
00000260: da23 8a3b 0c03 b03c a452 75bd 569e e7bc
00000270: 2df5 1c3e c60c b4bc f134 1c3e 206d 4a3e
00000280: 84bc 023e eb8b c7bb eeca 7abd 30e4 f0bd
00000290: 3774 c63d 766f d73d bf55 8abb 057a 913b
000002a0: 431e 8bbe a88e f9bc ab3c d53c 66e2 933c
000002b0: 958c f1bd ac63 3bbd f50d 3f3d ea04 34be
000002c0: e33b 98bd 2f48 8dbe 4372 12be 1520 e1ba
000002d0: 59b1 de3d c05a c2bd 3b8b 643c 083e 083e
000002e0: aa81 e03c 4e75 e33d 2057 b5bd bf48 5f3c
000002f0: c20e a83d aaf8 bbbc c4f4 a93d 0c4c 9cbd
00000300: 065d ebbc a6a0 f3bc f443 783d 17b8 2e3d
00000310: 39fd 07be 27f1 293e 9d11 6cbe 1126 373e
00000320: 36ed d8bd 0d52 973d 67f1 463d 5f8b dd3d
00000330: e1b5 ac3d a396 a8bd f728 153e d746 00be
00000340: b9f2 07bd 09a3 a6bd a294 25be 91bd 8e3d
00000350: b244 d1bd e7da 993b 138f d43d bc05 833e
00000360: f3a6 e33c ae2a 7a3d 690d 14be 9978 e23c
00000370: 3067 2abe 426f 053e 7fef 433d 8348 923d
00000380: 3491 c13b 932d cc3b ccc9 45be ca74 043d
00000390: 2cc9 a1bd 601a 773c 107a 83bc 0486 a2bd
000003a0: 2d77 92bd 4d61 25be ff9f 043d 1f12 cabd
000003b0: 0f4d 213e 0e04 b5bd 6347 c8bc 1c88 a93c
000003c0: 6e53 c3bc 9ae9 88bd 56c9 983d 3935 9c3d
000003d0: 00ce b1bd 3142 2e3e 3d4b 3c3e 0e7a ae3d
000003e0: 94ed 1a3e af8d 5dbc 6957 343e 9fb9 f03d
000003f0: dc60 dbbc 7396 30bc 1601 cd3c fd48 4b3e
